…
2022-10-06 12:40:25 - train_collater: <simpleAICV.classification.mixupcutmixclassificationcollator.MixupCutmixClassificationCollater object at 0x7f90501cafd0>
2022-10-06 12:40:25 - test_collater: <simpleAICV.classification.common.ClassificationCollater object at 0x7f90501caf10>
2022-10-06 12:40:25 - seed: 0
2022-10-06 12:40:25 - batch_size: 256
2022-10-06 12:40:25 - num_workers: 20
2022-10-06 12:40:25 - accumulation_steps: 4
2022-10-06 12:40:25 - optimizer: ('AdamW', {'lr': 0.002, 'global_weight_decay': False, 'weight_decay': 0.05, 'lr_layer_decay': 0.65, 'lr_layer_decay_block': ModuleList(
  (0): TransformerEncoderLayer(
    (norm1): LayerNorm((768,), eps=1e-05, elementwise_affine=True)
    (attention): MultiHeadAttention(
      (qkv_linear): Linear(in_features=768, out_features=2304, bias=True)
      (out_linear): Linear(in_features=768, out_features=768, bias=True)
      (dropout): Dropout(p=0.0, inplace=False)
      (softmax): Softmax(dim=-1)
    )
    (norm2): LayerNorm((768,), eps=1e-05, elementwise_affine=True)
    (feed_forward): FeedForward(
      (fc1): Linear(in_features=768, out_features=3072, bias=True)
      (gelu): GELU()
      (fc2): Linear(in_features=3072, out_features=768, bias=True)
      (drop): Dropout(p=0.0, inplace=False)
    )
    (drop_path): Identity()
  )
  (1): TransformerEncoderLayer(
    (norm1): LayerNorm((768,), eps=1e-05, elementwise_affine=True)
    (attention): MultiHeadAttention(
      (qkv_linear): Linear(in_features=768, out_features=2304, bias=True)
      (out_linear): Linear(in_features=768, out_features=768, bias=True)
      (dropout): Dropout(p=0.0, inplace=False)
      (softmax): Softmax(dim=-1)
    )
    (norm2): LayerNorm((768,), eps=1e-05, elementwise_affine=True)
    (feed_forward): FeedForward(
      (fc1): Linear(in_features=768, out_features=3072, bias=True)
      (gelu): GELU()
      (fc2): Linear(in_features=3072, out_features=768, bias=True)
      (drop): Dropout(p=0.0, inplace=False)
    )
    (drop_path): DropPathBlock()
  )
  (2): TransformerEncoderLayer(
    (norm1): LayerNorm((768,), eps=1e-05, elementwise_affine=True)
    (attention): MultiHeadAttention(
      (qkv_linear): Linear(in_features=768, out_features=2304, bias=True)
      (out_linear): Linear(in_features=768, out_features=768, bias=True)
      (dropout): Dropout(p=0.0, inplace=False)
      (softmax): Softmax(dim=-1)
    )
    (norm2): LayerNorm((768,), eps=1e-05, elementwise_affine=True)
    (feed_forward): FeedForward(
      (fc1): Linear(in_features=768, out_features=3072, bias=True)
      (gelu): GELU()
      (fc2): Linear(in_features=3072, out_features=768, bias=True)
      (drop): Dropout(p=0.0, inplace=False)
    )
    (drop_path): DropPathBlock()
  )
  (3): TransformerEncoderLayer(
    (norm1): LayerNorm((768,), eps=1e-05, elementwise_affine=True)
    (attention): MultiHeadAttention(
      (qkv_linear): Linear(in_features=768, out_features=2304, bias=True)
      (out_linear): Linear(in_features=768, out_features=768, bias=True)
      (dropout): Dropout(p=0.0, inplace=False)
      (softmax): Softmax(dim=-1)
    )
    (norm2): LayerNorm((768,), eps=1e-05, elementwise_affine=True)
    (feed_forward): FeedForward(
      (fc1): Linear(in_features=768, out_features=3072, bias=True)
      (gelu): GELU()
      (fc2): Linear(in_features=3072, out_features=768, bias=True)
      (drop): Dropout(p=0.0, inplace=False)
    )
    (drop_path): DropPathBlock()
  )
  (4): TransformerEncoderLayer(
    (norm1): LayerNorm((768,), eps=1e-05, elementwise_affine=True)
    (attention): MultiHeadAttention(
      (qkv_linear): Linear(in_features=768, out_features=2304, bias=True)
      (out_linear): Linear(in_features=768, out_features=768, bias=True)
      (dropout): Dropout(p=0.0, inplace=False)
      (softmax): Softmax(dim=-1)
    )
    (norm2): LayerNorm((768,), eps=1e-05, elementwise_affine=True)
    (feed_forward): FeedForward(
      (fc1): Linear(in_features=768, out_features=3072, bias=True)
      (gelu): GELU()
      (fc2): Linear(in_features=3072, out_features=768, bias=True)
      (drop): Dropout(p=0.0, inplace=False)
    )
    (drop_path): DropPathBlock()
  )
  (5): TransformerEncoderLayer(
    (norm1): LayerNorm((768,), eps=1e-05, elementwise_affine=True)
    (attention): MultiHeadAttention(
      (qkv_linear): Linear(in_features=768, out_features=2304, bias=True)
      (out_linear): Linear(in_features=768, out_features=768, bias=True)
      (dropout): Dropout(p=0.0, inplace=False)
      (softmax): Softmax(dim=-1)
    )
    (norm2): LayerNorm((768,), eps=1e-05, elementwise_affine=True)
    (feed_forward): FeedForward(
      (fc1): Linear(in_features=768, out_features=3072, bias=True)
      (gelu): GELU()
      (fc2): Linear(in_features=3072, out_features=768, bias=True)
      (drop): Dropout(p=0.0, inplace=False)
    )
    (drop_path): DropPathBlock()
  )
  (6): TransformerEncoderLayer(
    (norm1): LayerNorm((768,), eps=1e-05, elementwise_affine=True)
    (attention): MultiHeadAttention(
      (qkv_linear): Linear(in_features=768, out_features=2304, bias=True)
      (out_linear): Linear(in_features=768, out_features=768, bias=True)
      (dropout): Dropout(p=0.0, inplace=False)
      (softmax): Softmax(dim=-1)
    )
    (norm2): LayerNorm((768,), eps=1e-05, elementwise_affine=True)
    (feed_forward): FeedForward(
      (fc1): Linear(in_features=768, out_features=3072, bias=True)
      (gelu): GELU()
      (fc2): Linear(in_features=3072, out_features=768, bias=True)
      (drop): Dropout(p=0.0, inplace=False)
    )
    (drop_path): DropPathBlock()
  )
  (7): TransformerEncoderLayer(
    (norm1): LayerNorm((768,), eps=1e-05, elementwise_affine=True)
    (attention): MultiHeadAttention(
      (qkv_linear): Linear(in_features=768, out_features=2304, bias=True)
      (out_linear): Linear(in_features=768, out_features=768, bias=True)
      (dropout): Dropout(p=0.0, inplace=False)
      (softmax): Softmax(dim=-1)
    )
    (norm2): LayerNorm((768,), eps=1e-05, elementwise_affine=True)
    (feed_forward): FeedForward(
      (fc1): Linear(in_features=768, out_features=3072, bias=True)
      (gelu): GELU()
      (fc2): Linear(in_features=3072, out_features=768, bias=True)
      (drop): Dropout(p=0.0, inplace=False)
    )
    (drop_path): DropPathBlock()
  )
  (8): TransformerEncoderLayer(
    (norm1): LayerNorm((768,), eps=1e-05, elementwise_affine=True)
    (attention): MultiHeadAttention(
      (qkv_linear): Linear(in_features=768, out_features=2304, bias=True)
      (out_linear): Linear(in_features=768, out_features=768, bias=True)
      (dropout): Dropout(p=0.0, inplace=False)
      (softmax): Softmax(dim=-1)
    )
    (norm2): LayerNorm((768,), eps=1e-05, elementwise_affine=True)
    (feed_forward): FeedForward(
      (fc1): Linear(in_features=768, out_features=3072, bias=True)
      (gelu): GELU()
      (fc2): Linear(in_features=3072, out_features=768, bias=True)
      (drop): Dropout(p=0.0, inplace=False)
    )
    (drop_path): DropPathBlock()
  )
  (9): TransformerEncoderLayer(
    (norm1): LayerNorm((768,), eps=1e-05, elementwise_affine=True)
    (attention): MultiHeadAttention(
      (qkv_linear): Linear(in_features=768, out_features=2304, bias=True)
      (out_linear): Linear(in_features=768, out_features=768, bias=True)
      (dropout): Dropout(p=0.0, inplace=False)
      (softmax): Softmax(dim=-1)
    )
    (norm2): LayerNorm((768,), eps=1e-05, elementwise_affine=True)
    (feed_forward): FeedForward(
      (fc1): Linear(in_features=768, out_features=3072, bias=True)
      (gelu): GELU()
      (fc2): Linear(in_features=3072, out_features=768, bias=True)
      (drop): Dropout(p=0.0, inplace=False)
    )
    (drop_path): DropPathBlock()
  )
  (10): TransformerEncoderLayer(
    (norm1): LayerNorm((768,), eps=1e-05, elementwise_affine=True)
    (attention): MultiHeadAttention(
      (qkv_linear): Linear(in_features=768, out_features=2304, bias=True)
      (out_linear): Linear(in_features=768, out_features=768, bias=True)
      (dropout): Dropout(p=0.0, inplace=False)
      (softmax): Softmax(dim=-1)
    )
    (norm2): LayerNorm((768,), eps=1e-05, elementwise_affine=True)
    (feed_forward): FeedForward(
      (fc1): Linear(in_features=768, out_features=3072, bias=True)
      (gelu): GELU()
      (fc2): Linear(in_features=3072, out_features=768, bias=True)
      (drop): Dropout(p=0.0, inplace=False)
    )
    (drop_path): DropPathBlock()
  )
  (11): TransformerEncoderLayer(
    (norm1): LayerNorm((768,), eps=1e-05, elementwise_affine=True)
    (attention): MultiHeadAttention(
      (qkv_linear): Linear(in_features=768, out_features=2304, bias=True)
      (out_linear): Linear(in_features=768, out_features=768, bias=True)
      (dropout): Dropout(p=0.0, inplace=False)
      (softmax): Softmax(dim=-1)
    )
    (norm2): LayerNorm((768,), eps=1e-05, elementwise_affine=True)
    (feed_forward): FeedForward(
      (fc1): Linear(in_features=768, out_features=3072, bias=True)
      (gelu): GELU()
      (fc2): Linear(in_features=3072, out_features=768, bias=True)
      (drop): Dropout(p=0.0, inplace=False)
    )
    (drop_path): DropPathBlock()
  )
), 'block_name': 'blocks', 'no_weight_decay_layer_name_list': ['position_encoding', 'cls_token']})
2022-10-06 12:40:25 - scheduler: ('CosineLR', {'warm_up_epochs': 5, 'min_lr': 1e-06})
2022-10-06 12:40:25 - epochs: 100
2022-10-06 12:40:25 - print_interval: 10
2022-10-06 12:40:25 - sync_bn: False
…
